…
,{"stream_name":"stdout","time":37.591938977,"data":"Overriding class names with single class.\n"}
,{"stream_name":"stderr","time":37.993515489,"data":"\r  0%|          | 0.00/755k [00:00\u003c?, ?B/s]\r100%|██████████| 755k/755k [00:00\u003c00:00, 16.7MB/s]\n"}
,{"stream_name":"stdout","time":40.249592116,"data":"Overriding model.yaml nc=80 with nc=1\n"}
,{"stream_name":"stdout","time":40.25050326,"data":"\n"}
,{"stream_name":"stdout","time":40.25053692,"data":"                   from  n    params  module                                       arguments                     \n"}
,{"stream_name":"stdout","time":40.281982678,"data":"  0                  -1  1      1392  ultralytics.nn.modules.conv.Conv             [3, 48, 3, 2]                 \n"}
,{"stream_name":"stdout","time":40.283640145,"data":"  1                  -1  1     41664  ultralytics.nn.modules.conv.Conv             [48, 96, 3, 2]                \n"}
,{"stream_name":"stdout","time":40.287621989,"data":"  2                  -1  2    111360  ultralytics.nn.modules.block.C2f             [96, 96, 2, True]             \n"}
,{"stream_name":"stdout","time":40.290162655,"data":"  3                  -1  1    166272  ultralytics.nn.modules.conv.Conv             [96, 192, 3, 2]               \n"}
,{"stream_name":"stdout","time":40.299811697,"data":"  4                  -1  4    813312  ultralytics.nn.modules.block.C2f             [192, 192, 4, True]           \n"}
,{"stream_name":"stdout","time":40.30557689,"data":"  5                  -1  1    664320  ultralytics.nn.modules.conv.Conv             [192, 384, 3, 2]              \n"}
,{"stream_name":"stdout","time":40.335840441,"data":"  6                  -1  4   3248640  ultralytics.nn.modules.block.C2f             [384, 384, 4, True]           \n"}
,{"stream_name":"stdout","time":40.352636618,"data":"  7                  -1  1   1991808  ultralytics.nn.modules.conv.Conv             [384, 576, 3, 2]              \n"}
,{"stream_name":"stdout","time":40.400752273,"data":"  8                  -1  2   3985920  ultralytics.nn.modules.block.C2f             [576, 576, 2, True]           \n"}
,{"stream_name":"stdout","time":40.409662131,"data":"  9                  -1  1    831168  ultralytics.nn.modules.block.SPPF            [576, 576, 5]                 \n"}
,{"stream_name":"stdout","time":40.410631845,"data":" 10                  -1  1         0  torch.nn.modules.upsampling.Upsample         [None, 2, 'nearest']          \n"}
,{"stream_name":"stdout","time":40.412894586,"data":" 11             [-1, 6]  1         0  ultralytics.nn.modules.conv.Concat           [1]                           \n"}
,{"stream_name":"stdout","time":40.430766052,"data":" 12                  -1  2   1993728  ultralytics.nn.modules.block.C2f             [960, 384, 2]                 \n"}
,{"stream_name":"stdout","time":40.431424864,"data":" 13                  -1  1         0  torch.nn.modules.upsampling.Upsample         [None, 2, 'nearest']          \n"}
,{"stream_name":"stdout","time":40.432319928,"data":" 14             [-1, 4]  1         0  ultralytics.nn.modules.conv.Concat           [1]                           \n"}
,{"stream_name":"stdout","time":40.439100797,"data":" 15                  -1  2    517632  ultralytics.nn.modules.block.C2f             [576, 192, 2]                 \n"}
,{"stream_name":"stdout","time":40.442451826,"data":" 16                  -1  1    332160  ultralytics.nn.modules.conv.Conv             [192, 192, 3, 2]              \n"}
,{"stream_name":"stdout","time":40.443541258,"data":" 17            [-1, 12]  1         0  ultralytics.nn.modules.conv.Concat           [1]                           \n"}
,{"stream_name":"stdout","time":40.461164915,"data":" 18                  -1  2   1846272  ultralytics.nn.modules.block.C2f             [576, 384, 2]                 \n"}
,{"stream_name":"stdout","time":40.474108147,"data":" 19                  -1  1   1327872  ultralytics.nn.modules.conv.Conv             [384, 384, 3, 2]              \n"}
,{"stream_name":"stdout","time":40.474997603,"data":" 20             [-1, 9]  1         0  ultralytics.nn.modules.conv.Concat           [1]                           \n"}
,{"stream_name":"stdout","time":40.516248551,"data":" 21                  -1  2   4207104  ultralytics.nn.modules.block.C2f             [960, 576, 2]                 \n"}
,{"stream_name":"stdout","time":40.611481411,"data":" 22        [15, 18, 21]  1   3776275  ultralytics.nn.modules.head.Detect           [1, [192, 384, 576]]          \n"}
,{"stream_name":"stdout","time":41.355273243,"data":"Model summary: 169 layers, 25,856,899 parameters, 25,856,883 gradients, 79.1 GFLOPs\n"}
,{"stream_name":"stdout","time":41.356642974,"data":"\n"}
,{"stream_name":"stdout","time":41.393892108,"data":"Transferred 469/475 items from pretrained weights\n"}
,{"stream_name":"stdout","time":41.685783953,"data":"Freezing layer 'model.22.dfl.conv.weight'\n"}
…
